…
    \"start_time\": \"2024-03-19T15:04:52.955488300Z\"\r\n    }\r\n   }\r\n  },\r\n  {\r\n   \"cell_type\": \"code\",\r\n   \"execution_count\": 68,\r\n   \"outputs\": [\r\n    {\r\n     \"name\": \"stdout\",\r\n     \"output_type\": \"stream\",\r\n     \"text\": [\r\n      \"Model: \\\"sequential_6\\\"\\n\",\r\n      \"_________________________________________________________________\\n\",\r\n      \" Layer (type)                Output Shape              Param #   \\n\",\r\n      \"=================================================================\\n\",\r\n      \" conv1d_18 (Conv1D)          (None, 313, 64)           140608    \\n\",\r\n      \"                                                                 \\n\",\r\n      \" max_pooling1d_12 (MaxPoolin  (None, 156, 64)          0         \\n\",\r\n      \" g1D)                                                            \\n\",\r\n      \"                                                                 \\n\",\r\n      \" conv1d_19 (Conv1D)          (None, 154, 128)          24704     \\n\",\r\n      \"                                                                 \\n\",\r\n      \" max_pooling1d_13 (MaxPoolin  (None, 77, 128)          0         \\n\",\r\n      \" g1D)                                                            \\n\",\r\n      \"                                                                 \\n\",\r\n      \" conv1d_20 (Conv1D)          (None, 75, 128)           49280     \\n\",\r\n      \"                                                                 \\n\",\r\n      \" flatten_6 (Flatten)         (None, 9600)              0         \\n\",\r\n      \"                                                                 \\n\",\r\n      \" dense_18 (Dense)            (None, 128)               1228928   \\n\",\r\n      \"                                                                 \\n\",\r\n      \" dense_19 (Dense)            (None, 64)                8256      \\n\",\r\n      \"                                                                 \\n\",\r\n      \" dense_20 (Dense)            (None, 24)                1560      \\n\",\r\n      \"                                                                 \\n\",\r\n      \"=================================================================\\n\",\r\n      \"Total params: 1,453,336\\n\",\r\n      \"Trainable params: 1,453,336\\n\",\r\n      \"Non-trainable params: 0\\n\",\r\n      \"_________________________________________________________________\\n\"\r\n     ]\r\
…
     "model.add(layers.Conv1D(64, 3, activation='relu', input_shape=(315,732)))\n",
@@ -473,40 +685,40 @@
   },
   {
    "cell_type": "code",
-   "execution_count": 68,
+   "execution_count": 6,
    "outputs": [
     {
      "name": "stdout",
      "output_type": "stream",
      "text": [
-      "Model: \"sequential_6\"\n",
+      "Model: \"sequential\"\n",
       "_________________________________________________________________\n",
       " Layer (type)                Output Shape              Param #   \n",
       "=================================================================\n",
-      " conv1d_18 (Conv1D)          (None, 313, 64)           140608    \n",
+      " conv1d (Conv1D)             (None, 313, 64)           140608    \n",
       "                                                                 \n",
-      " max_pooling1d_12 (MaxPoolin  (None, 156, 64)          0         \n",
-      " g1D)                                                            \n",
+      " max_pooling1d (MaxPooling1  (None, 156, 64)           0         \n",
+      " D)                                                              \n",
       "                                                                 \n",
-      " conv1d_19 (Conv1D)          (None, 154, 128)          24704     \n",
+      " conv1d_1 (Conv1D)           (None, 154, 128)          24704     \n",
       "                                                                 \n",
-      " max_pooling1d_13 (MaxPoolin  (None, 77, 128)          0         \n",
+      " max_pooling1d_1 (MaxPoolin  (None, 77, 128)           0         \n",
       " g1D)                                                            \n",
       "                                                                 \n",
-      " conv1d_20 (Conv1D)          (None, 75, 128)           49280     \n",
+      " conv1d_2 (Conv1D)           (None, 75, 128)           49280     \n",
       "                                                                 \n",
-      " flatten_6 (Flatten)         (None, 9600)              0         \n",
+      " flatten (Flatten)           (None, 9600)              0         \n",
       "                                                                 \n",
-      " dense_18 (Dense)            (None, 128)               1228928   \n",
+      " dense (Dense)               (None, 128)               1228928   \n",
       "                                                                 \n",
-      " dense_19 (Dense)            (None, 64)                8256      \n",
+      " dense_1 (Dense)             (None, 64)                8256      \n",
       "                                                                 \n",
-      " dense_20 (Dense)            (None, 24)                1560      \n",
+      " dense_2 (Dense)             (None, 24)                1560      \n",
       "                                                                 \n",
       "=================================================================\n",
-      "Total params: 1,453,336\n",
-      "Trainable params: 1,453,336\n",
-      "Non-trainable params: 0\n",
+      "Total params: 1453336 (5.54 MB)\n",
+      "Trainable params: 1453336 (5.54 MB)\n",
+      "Non-trainable params: 0 (0.00 Byte)\n",
…
